app/train/anfis_model_boosted.pt (torch, 17408 bytes, 1 tensors)

linear.weight f4 [1, 1024]
0.035900716 0.022684569 0.031092096 0.042899318 0.015268907 -0.006444512 0.020100174 0.025234263
0.0117236655 -0.024564214 0.0056566102 0.05470538 -0.01551704 0.0022224064 -0.0045110094 0.0706121
0.036567874 0.02608851 0.042042412 0.04232871 0.009658905 0.039472528 0.016438501 0.035802323
-0.032446317 -0.005269125 0.019068649 0.011144821 -0.02317766 -0.008455846 0.027155831 0.05602355
0.045694903 0.040654756 0.06260841 0.048767254 0.011772686 0.01991582 0.04596139 0.032499854
-0.00021437385 -0.007424764 0.020778587 0.044986863 -0.050878625 0.0041893153 0.014991206 0.015804721
0.0634057 0.06961985 0.049936738 0.016468924 -0.014089614 -0.01477378 0.00057284994 -0.0077355937
-0.02963891 -0.0061318674 -0.031971432 -0.012886344 -0.07340174 -0.042343892 -0.03589771 0.012580633
0.08262669 0.03240736 0.0444393 0.018300747 0.019164361 0.028651932 0.020851295 0.022852637
-0.03666104 -0.031070495 -0.01894137 0.0029554232 -0.009308293 -0.00093302975 -0.0015265961 0.018879024
0.07154517 0.03098935 0.066530995 -0.008157052 0.025806043 0.014044754 0.03679813 0.0049554068
-0.038334798 -0.033415526 -0.022460448 0.030365823 -0.046419706 -0.0098353 0.018336413 0.04874862
0.06982096 0.054202586 0.041305248 0.010453485 -0.006461914 0.021847924 0.011786921 0.021321388
-0.058340408 -0.016504942 0.0023952916 0.022443747 -0.059324816 -0.017649932 -0.023300895 0.015139083
0.068658836 0.07934476 0.07075483 0.043980487 -0.016647408 -0.0061881146 0.026953833 0.019814052
-0.05623583 -0.009589359 -0.04081293 -0.029979968 -0.053754278 -0.040138673 -0.03595855 0.038908906
0.028147306 0.03796227 0.04285102 0.018180544 0.032444973 -0.01877934 0.0020378714 -0.009022285
-0.01541579 -0.022083374 -0.021910246 -0.016669868 -0.028664635 -0.009685861 -0.021987347 -0.0022249667
0.04558195 0.0107437065 0.0074814484 -0.023964675 -0.0069227284 -0.011036046 -0.003689474 0.004003247
0.0053079827 -0.031635623 0.01620077 -0.031557422 -0.0010634935 -0.037738297 -0.032256577 -0.0058504213
0.05297005 0.04513176 0.044060893 0.0210114 0.03308501 -0.012096917 -0.026630912 -0.008697082
-0.03193464 -0.0073789526 -0.02034478 0.006995517 0.0038858482 -0.029549891 0.0020229386 0.030890731
0.054920938 0.048649292 0.047613367 0.005423113 0.0010834406 -0.008176824 -0.013650921 -0.026139101
-0.020026466 -0.0064944173 0.0006583436 0.014852753 -0.02055819 -0.026007988 0.008333624 -0.00987987
0.03879729 0.018097691 0.025708629 -0.0036031655 0.0019902647 -0.00431662 0.014312477 -0.023797086
-0.024495754 0.025151046 -0.019801782 0.020126479 -0.013401877 0.044108327 0.015079907 0.0045226556
0.048346654 0.022071168 0.00960575 -0.02088204 0.0032797821 0.02998478 -0.017847817 0.010002148
0.026570361 -0.020208165 -0.004054546 -0.008938411 0.0037883304 0.012222946 0.020255588 0.019305188
0.03989568 0.07320546 0.03853599 -0.009186791 -0.010415964 0.014992713 0.024033578 -0.043163452
0.0006715853 0.009978246 0.022530839 -0.032929722 -0.022269107 0.011118241 -0.008504268 -0.0019837872
0.029219707 0.033956654 0.05581271 0.0076993043 0.037812233 0.038430218 0.034874517 -0.035727147
-0.017418584 0.029762013 -0.033395115 -0.023780866 -0.010140612 0.0029157388 0.004023422 0.019950502
00000000: a10c 133d fdd4 b93c dab4 fe3c 32b7 2f3d
00000010: 702a 7a3c 7c2c d3bb 1fa9 a43c 16b8 ce3c
00000020: 9e14 403c e43a c9bc 165b b93b c012 603d
00000030: 2f3b 7ebc cba5 113b 17d1 93bb 149d 903d
00000040: 32c8 153d 92b7 d53c aa34 2c3d df60 2d3d
00000050: 6240 1e3c f2ad 213d 09aa 863c 75a5 123d
00000060: 6ee6 04bd a0a8 acbb db35 9c3c c498 363c
00000070: 13df bdbc 648a 0abc e875 de3c f378 653d
00000080: 942a 3b3d 9a85 263d d738 803d 2cc0 473d
00000090: 39e2 403c 8026 a33c 0342 3c3d 911e 053d
000000a0: 8bc9 60b9 6f4b f3bb db37 aa3c 2544 383d
000000b0: 1b66 50bd 8646 893b ad9d 753c e778 813c
000000c0: d9da 813d da94 8e3d 778a 4c3d d6e9 863c
000000d0: 20d8 66bc b90d 72bc 4f2b 163a dd7a fdbb
000000e0: 4dcd f2bc d5ed c8bb 7af4 02bd 3f21 53bc
000000f0: a753 96bd ca70 2dbd 7a09 13bd 001f 4e3c
00000100: 2f38 a93d 94bd 043d fc05 363d 73eb 953c
00000110: 94fe 9c3c 75b7 ea3c 56d0 aa3c 7435 bb3c
00000120: e329 16bd 8d87 febc ef2a 9bbc c6af 413b
00000130: d081 18bc 9196 74ba 1118 c8ba 2fa8 9a3c
00000140: 4686 923d 61dd fd3c 6741 883d 28a5 05bc
00000150: 3267 d33c f81b 663c a3b9 163d f760 a23b
00000160: f304 1dbd b8de 08bd f9fe b7bc bfc1 f83c
00000170: 9722 3ebd 3d24 21bc 3f36 963c a2ac 473d
00000180: 4bfe 8e3d 8803 5e3d b12f 293d 1845 2b3c
00000190: 77be d3bb 6bfa b23c ee1d 413c 31aa ae3c
000001a0: 5af6 6ebd 5f35 87bc 53fa 1c3b f3db b73c
000001b0: 94fe 72bd 9796 90bc 85e1 bebc eb09 783c
000001c0: 019d 8c3d 817f a23d e9e7 903d e224 343d
000001d0: 2560 88bc abc5 cabb 49ce dc3c 1451 a23c
000001e0: 8b57 66bd b01c 1dbc 752b 27bd 8d98 f5bc
000001f0: 722d 5cbd 7368 24bd 4649 13bd f25e 1f3d
00000200: 2e95 e63c 537e 1b3d 8d84 2f3d 5def 943c
00000210: 05e5 043d 21d7 99bc cf8d 053b 35d2 13bc
00000220: 8292 7cbc 31e8 b4bc 1e7d b3bc 3f8f 88bc
00000230: 19d2 eabc 72b1 1ebc cf1e b4bc bfd0 11bb
00000240: 24b4 3a3d 5f06 303c f026 f53b 9151 c4bc
00000250: 0ed8 e2bb 88d0 34bc 1acb 71bb ab2d 833b
00000260: 96ee ad3b 5b94 01bd 7ab7 843c 5b42 01bd
00000270: ec64 8bba 7993 1abd 791f 04bd e4b4 bfbb
00000280: 20f7 583d 15dc 383d 3279 343d 1920 ac3c
00000290: 2684 073d 2632 46bc 1229 dabc 357e 0ebc
000002a0: e6cd 02bd 24cb f1bb 19aa a6bc a63a e53b
000002b0: b7a9 7e3b 9d12 f2bc 4793 043b 8f0e fd3c
000002c0: c7f4 603d 7b44 473d 3c06 433d 5eb4 b13b
000002d0: 3c02 8e3a 16f8 05bc 1da8 5fbc ab21 d6bc
000002e0: 8b0e a4bc 1fcf d4bb b194 2c3a f658 733c
000002f0: a669 a8bc b40e d5bc c189 083c 2edf 21bc
00000300: e8e9 1e3d 9c41 943c e79a d23c 1623 6cbb
00000310: 1a6f 023b 6f72 8dbb e17e 6a3c 1bf2 c2bc
00000320: 52ab c8bc 9109 ce3c 5937 a2bc 49e0 a43c
00000330: 8c93 5bbc efaa 343d b711 773c c932 943b
00000340: 2407 463d 98ce b43c 7061 1d3c d010 abbc
00000350: 9df1 563b a4a2 f53c 9635 92bc 0de0 233c
00000360: 16aa d93c 988b a5bc ffdb 84bb 6a72 12bc
00000370: a345 783b c042 483c 0cef a53c ea25 9e3c
00000380: a769 233d bfec 953d ead7 1d3d 3284 16bc
00000390: b8a7 2abc ffa3 753c 11e2 c43c 29cc 30bd
000003a0: 540d 303a cc7b 233c 9892 b83c 51e1 06bd
000003b0: b46d b6bc 4829 363c 7c55 0bbc 6d02 02bb
000003c0: 2b5e ef3c 2216 0b3d de9b 643d 724a fc3b
000003d0: 00e1 1a3d 0169 1d3d 95d8 0e3d a156 12bd
000003e0: 6bb1 8ebc 77cf f33c 51c9 08bd 17d0 c2bc
000003f0: cf24 26bc fb15 3f3b e9d6 833b 3c6f a33c
