app/models/sanfis_model.pt (torch, 10754 bytes, 12 tensors)

layers.fuzzylayer.fuzzyfication.0._mu f4 [1, 3]
000000 60 b5 df be 31 2f 30 3e cd 21 9d 3f
       -0.43693066 0.17205502 1.227594

layers.fuzzylayer.fuzzyfication.0._sigma f4 [1, 3]
000000 b5 19 39 3f 70 43 0a 3f b5 79 05 3f
       0.7230485 0.5400915 0.52138835

layers.fuzzylayer.fuzzyfication.1._mu f4 [1, 3]
000000 23 5e 15 bf d6 a5 a6 be 6e 1b 32 3f
       -0.58346766 -0.32548398 0.69573104

layers.fuzzylayer.fuzzyfication.1._sigma f4 [1, 3]
000000 6e 73 01 3f ce 59 e7 3e 63 78 ca 3e
       0.50566757 0.45185703 0.39544973

layers.fuzzylayer.fuzzyfication.2._mu f4 [1, 3]
000000 3c c1 fc be 65 2e 0e bf 73 db 83 3f
       -0.49366176 -0.5553954 1.0301346

layers.fuzzylayer.fuzzyfication.2._sigma f4 [1, 3]
000000 a1 41 48 3f e8 48 ef 3e 45 77 3f 3f
       0.7822514 0.4673531 0.74791366

layers.fuzzylayer.fuzzyfication.3._mu f4 [1, 3]
000000 0a af b3 be 56 92 ad bd 39 74 cc 3e
       -0.35094482 -0.08475177 0.3993242

layers.fuzzylayer.fuzzyfication.3._sigma f4 [1, 3]
000000 a0 ea 33 3f b6 8d 86 3f 4e fe bb 3e
       0.70279884 1.0511997 0.36717457

layers.fuzzylayer.fuzzyfication.4._mu f4 [1, 3]
000000 ce c7 6a bf da 2a a5 be 22 7f 39 3f
       -0.9171113 -0.32259256 0.72459614

layers.fuzzylayer.fuzzyfication.4._sigma f4 [1, 3]
000000 e7 09 f1 3e 77 d2 e4 3e e8 28 78 3e
       0.47077867 0.44691822 0.24234354

layers.consequence._weight f4 [5, 243]
000000 28 4a 2d 3f 5a 90 28 3d 8d e9 1f 3f 96 4f ae 3e
       0.6769128 0.04115329 0.62465745 0.34045094
000010 2a 6e 2a bd f6 e9 ef bd 6e 9b 0d bc b6 2b 26 3f
       -0.041608967 -0.117145464 -0.008643014 0.6491045
000020 d6 9f d0 bd 26 0e 0c 3f 59 a0 d5 3d 8d ce 12 3f
       -0.10186736 0.5470909 0.104309745 0.5734642
000030 f2 14 ac bc cc dd a8 3e b3 52 7a 3e d4 ae f0 3e
       -0.021006081 0.32981718 0.2444561 0.47008383
000040 6b 2c 7c be 5c e9 00 3f 25 08 49 be 46 01 d9 3e
       -0.24626319 0.5035608 -0.19632013 0.42383784
000050 27 3c df 3e 2b 75 99 bd e3 27 71 3f 0a de 02 3f
       0.4360058 -0.07493051 0.9420149 0.51120055
000060 de b6 f3 3e a2 6b 9b 3e cd d4 1d bc 97 c3 47 3e
       0.47600454 0.30355555 -0.009633255 0.19508205
000070 e9 4c 3c 3e f3 0a c8 3e bd e8 c3 3e 53 b8 02 3f
       0.18388714 0.39070854 0.38263503 0.51062506
000080 9b a1 85 be 35 49 ca 3e 5d 42 5d 3e df d0 80 be
       -0.26099858 0.39508978 0.21607347 -0.25159356
000090 9c 17 17 3f 74 3d 97 be 9d b2 b5 be 7e 8f 02 3f
       0.590204 -0.29539073 -0.35487834 0.510002
0000a0 4e ed 90 bd 06 0e 41 bb f8 62 e1 bd 2d 89 4c be
       -0.07076512 -0.0029457822 -0.11005205 -0.19974203
0000b0 a5 c1 b8 3e e1 2f 34 3f 96 4c 08 be 5b fc 88 3e
       0.3608524 0.7038556 -0.13310465 0.26755032
0000c0 24 12 88 3d e0 a2 2d 3e 16 ca 4e be ad a0 04 3f
       0.06644085 0.16956663 -0.20194277 0.5180767
0000d0 7a f7 12 be 4f 84 13 be d5 8d cc 3e ed 5b 0d 3f
       -0.14352217 -0.1440594 0.3995196 0.5521839
0000e0 02 79 e4 3e 40 db 97 3e a0 d2 51 be a5 52 9b 3e
       0.44623572 0.29659462 -0.20490503 0.3033649
0000f0 bd 29 27 3f 21 84 b1 3e c0 e7 68 3d db 8b 98 3e
       0.6529806 0.3467112 0.05686164 0.297942
000100 7a d7 56 be 3d a9 32 be 77 bb 73 be e1 1f a2 be
       -0.20980635 -0.17447372 -0.23801981 -0.31664947
000110 f1 ad 31 3e 40 6b 90 be f5 cd a0 3e b6 40 bc bd
       0.1735151 -0.28206825 0.31407133 -0.0919203
000120 14 30 3c 3f 92 c6 fe 3e 8a 52 e9 3d 35 45 75 ba
       0.7351086 0.49760872 0.11392696 -0.0009356321
000130 f8 8b 2a 3f 72 46 d1 be 89 7a be 3e bd 72 81 be
       0.66619825 -0.40874058 0.37202862 -0.2528285
000140 f3 45 a9 be a5 bf 5d 3e ff b0 89 3f 8a 11 8e 3f
       -0.3306118 0.21655138 1.075714 1.1099102
000150 89 99 c3 bc dc 78 87 3f a8 14 84 3d af b9 db 3e
       -0.023876922 1.0583758 0.06449252 0.42915103
000160 11 a0 93 be f9 fc 33 be 09 0f cc 3d 6a c3 a8 3e
       -0.28833058 -0.1757697 0.09963805 0.3296159
000170 0c f0 f4 3e f5 49 1f 3f 2c aa 43 bc f5 5b 1c 3d
       0.4783939 0.62222224 -0.011942428 0.038173635
000180 2b 63 25 3e b1 6e a0 be 9b 50 64 3d e8 52 27 3f
       0.16151111 -0.3133445 0.055740934 0.6536088
000190 1f d0 25 3f 3f 01 b1 3d 9f aa 62 3e 81 74 19 3f
       0.6477069 0.08642816 0.221354 0.59943396
0001a0 92 55 8e 3e db 91 27 bd 41 2f 77 3e 33 ab 9c bb
       0.2779966 -0.040910583 0.2413912 -0.0047811507
0001b0 a9 0a 49 3f 4c ca 84 3f 77 ba 9f 3f 88 7f 02 3f
       0.7853189 1.0374236 1.247878 0.5097585
0001c0 91 73 36 3f 5d 5b 6b 3f 24 4a d8 3e 41 e3 1c 3d
       0.7127009 0.91936284 0.42244065 0.038302664
0001d0 5d 02 55 be c2 f8 1a be b7 56 1f 3f 7b 55 21 3f
       -0.20801683 -0.15133956 0.6224169 0.6302106
0001e0 c9 95 c3 3e 9f 40 d3 3d ce 7d 30 3e 31 ba bd 3e
       0.38200215 0.1031506 0.1723549 0.37056115
0001f0 fa 4d 45 3e f5 68 0f 3e 56 31 d7 3e 79 cc 82 bd
       0.19268027 0.14004882 0.42029828 -0.06386656
000200 f8 75 af 3e 2c 5c 0e 3f 40 69 3c be c4 60 5c 3e
       0.3426969 0.55609393 -0.18399525 0.21521288
000210 1b 65 a1 3d 52 7b 39 3e 7f fd 12 bf 93 77 16 3f
       0.078806125 0.18113449 -0.57418054 0.58776206
000220 89 6b 8e 3f b2 fd c2 3e b1 9f 26 3d 62 41 5d 3f
       1.1126567 0.3808418 0.040679637 0.8642789
000230 7b ec 1f be 32 68 99 3d 1a 1f 05 3e 41 95 ac 3e
       -0.15617554 0.07490577 0.13000146 0.33707622
000240 09 6f b6 3e 9e 30 ac 3e 1c 6b 71 3e f5 cc 9e bc
       0.35631588 0.33630842 0.23576015 -0.01938484
000250 3c 7a 18 3e 5b e6 71 3e 5d e2 13 be 4c 06 8f 3e
       0.14890379 0.2362303 -0.1444182 0.27934492
000260 28 23 f9 3d cd 13 67 3f ad e4 12 3f 2a 40 fe 3e
       0.12164909 0.9026459 0.5738018 0.49658328
000270 10 58 58 3f e8 da 78 3f da a7 29 3f 21 db 94 3e
       0.8450937 0.97209024 0.66271746 0.29073432
000280 95 f5 b5 3f 75 ce 88 3e fc be 61 3d 54 61 9f 3f
       1.4215571 0.26720014 0.055113778 1.2451577
000290 c2 bd da 3e c9 6a fd 3c aa b2 05 be 6e 79 6b bd
       0.427229 0.030934708 -0.13056436 -0.05748885
0002a0 e5 22 77 3e 64 7f c7 b9 ad d3 f3 be f7 c6 db 3e
       0.24134405 -0.0003805115 -0.47622433 0.42925236
0002b0 aa 1a de bd 05 aa 0b 3f f0 af 56 3e 10 4c ba bd
       -0.108449295 0.54556304 0.20965552 -0.09096539
0002c0 fa 71 9c be b5 e6 a1 3e bb bd 36 3d 47 db 0c be
       -0.30555707 0.31621328 0.044614535 -0.13755523
0002d0 cc e9 1f be 20 08 9c bc d7 1f a7 3e bd 2f 8b be
       -0.1561653 -0.019046843 0.3264148 -0.2718486
0002e0 a9 3c 9c bc e9 92 31 bf bb 5b b1 3d 6d ae 0e bf
       -0.019071894 -0.6936479 0.08660074 -0.557349
0002f0 33 61 62 bd 55 d9 57 3d 76 6a 49 3f 50 10 01 3f
       -0.055268478 0.0526975 0.7867807 0.50415516
000300 61 fb 96 3e 40 0f f8 3e bc 31 2a 3e e4 f1 80 be
       0.29488662 0.48449135 0.16620535 -0.25184548
000310 4d 32 bc be 46 e9 4a bd bd 8a 3c be 93 e4 12 3f
       -0.36757126 -0.049538873 -0.184123 0.57380027
000320 93 11 34 be 97 32 c8 3d 98 c3 b0 3e 1c 75 9e be
       -0.17584829 0.09775274 0.34524226 -0.30948722
000330 e1 6d eb 3e 51 46 02 3e 87 dd 02 be be 91 da 3e
       0.45982268 0.12722136 -0.12779818 0.42689317
000340 f7 3e 26 3f b4 36 87 3e 59 90 85 be d0 2a 5c bd
       0.64939827 0.26408923 -0.2608669 -0.053751767
000350 25 3d fa bd df 5d a2 be cd 2e 37 3e 25 8d f0 bd
       -0.12218694 -0.31712243 0.17888947 -0.11745671
000360 7c f6 d6 bd 27 f9 52 3f 6a 56 8f 3d f7 cd a9 be
       -0.10496232 0.82411426 0.06998904 -0.3316495
000370 0c a4 26 be b7 ed 92 be 12 5a e4 be 2e ff ce 3c
       -0.16273516 -0.28696987 -0.44599968 0.025268164
000380 6e 86 a3 3e 5b 2b 55 be 41 14 31 3f 23 53 72 be
       0.319385 -0.2081732 0.6917153 -0.23664527
000390 9f 92 83 3e e6 72 96 be 57 51 05 3f 01 f4 f0 3d
       0.256978 -0.29384536 0.5207724 0.1176529
0003a0 2e ac 63 3e 13 5a 49 3d 3c 7c 03 3f b5 ad 39 3e
       0.2223365 0.049158167 0.5136144 0.1813267
0003b0 4c 9a d6 be a5 89 5a 3e c8 34 35 3d 2b b2 c7 3d
       -0.41914594 0.2134157 0.04423979 0.0975078
0003c0 2e 55 5a 3e 47 76 0f be e9 0b fb be 77 50 4c 3f
       0.21321556 -0.14009963 -0.49032524 0.7981028
0003d0 19 ed a6 3e ff 8e 05 be ea 87 fc bd ba 63 46 3e
       0.32602766 -0.1304283 -0.12330611 0.1937398
0003e0 ea 35 cb be 62 df 9d 3e 3a b3 be 3d f3 07 c0 3e
       -0.3968957 0.3083449 0.093115285 0.37506065
0003f0 3f a4 b1 3e 98 da 32 3e 1d d6 4b be f3 5b 31 3d
       0.34695622 0.174662 -0.19905896 0.04330058

layers.consequence._bias f4 [1, 243]
000000 59 41 0c 3f f0 6c 28 3f f3 0c fc 3e 0a 80 1a be
       0.5478721 0.65791225 0.4922863 -0.15087906
000010 18 0b 23 3f 7e 8f c2 3e 6a 0c 50 3e c7 dd 8f 3d
       0.636888 0.380001 0.20317236 0.070247225
000020 a0 65 50 3e 37 9e f6 3e 93 b2 25 3f 3c 34 7d bd
       0.20351267 0.48167583 0.6472561 -0.061817393
000030 bf 57 40 bc 74 0a 2d 3e 5e 2b c0 3c 57 30 99 3e
       -0.01173967 0.16898519 0.02345818 0.29919693
000040 df 2e 11 3d dc 4d 59 3e 84 41 47 bd 81 ba 5d 3f
       0.03544509 0.21221107 -0.048646465 0.8661271
000050 93 3e bc 3e 0c 9b 1b 3f 6b c7 7d 3d 0d bb 26 be
       0.3676649 0.6078346 0.061957758 -0.16282292
000060 46 37 b5 3e b4 06 30 3e c9 9b 6a 3e 38 ec b4 3d
       0.35393733 0.17190057 0.2291099 0.08834118
000070 0a 99 02 3f 29 79 15 3f 2d 9b 9a 3e 08 a9 bf bd
       0.5101477 0.58388 0.30196515 -0.09358412
000080 01 53 b3 3e c5 57 8f be 24 95 10 be 4e 36 ce 3e
       0.35024264 -0.2799665 -0.14119393 0.40275806
000090 26 07 25 3f 67 83 b0 bd a9 11 ed ba 49 54 60 3d
       0.6446403 -0.08618813 -0.0018086928 0.05476788
0000a0 3b f8 86 be 28 72 4a be fd 04 e3 3e df d7 68 be
       -0.2636126 -0.1977011 0.44339743 -0.22738598
0000b0 5f 3f b1 be 73 6b 22 3f 64 32 1b 3f 08 79 82 be
       -0.3461866 0.63445204 0.60623765 -0.25482965
0000c0 db ff 94 3d 55 54 0c 3e 41 cc e1 3e 90 57 8f 3d
       0.07275363 0.13704045 0.44101146 0.06999123
0000d0 2d ec 9e 3e 1f 26 a9 be 1f f1 80 be 18 32 49 3d
       0.31039563 -0.33036897 -0.2518396 0.04912004
0000e0 11 e8 9a bd a4 c0 2b 3f e3 1b 03 be 6a 4c 72 3e
       -0.075637944 0.6709082 -0.12803607 0.23661962
0000f0 61 f0 d6 3e 6e 76 6f be b6 d8 d2 3e fe 24 80 3e
       0.4198027 -0.23385021 0.41180962 0.25028223
000100 b8 26 86 bd e2 21 ac 3d 46 3a bd 3e 78 77 ab bd
       -0.06550354 0.084049 0.36958522 -0.08372396
000110 d7 ba c8 3e d3 c5 1b bd 20 ab d9 3c df 81 94 3e
       0.39205047 -0.038030457 0.026570857 0.29005334
000120 86 86 2c 3f 57 4c 41 3d 03 52 26 3e dd 02 7a 3e
       0.67392766 0.047191944 0.16242222 0.24415155
000130 92 87 9a be d6 b8 67 3e 1f f2 c3 be bf 13 3d bf
       -0.30181557 0.22629103 -0.3827066 -0.73858255
000140 e4 c5 02 3e c0 59 d4 3e 5b 86 99 3f 50 d3 79 3f
       0.12770802 0.41474724 1.1994127 0.9758806
000150 d8 76 f3 bd 48 cb 2a 3f bd 14 0d 3f 28 55 a5 3e
       -0.11887902 0.6671643 0.5510977 0.32291532
000160 36 97 3a 3e 2e 48 8b 3e fe 53 32 3f 06 d9 b9 3e
       0.18221745 0.27203506 0.6965941 0.36298388
000170 15 65 b1 3e e0 7d af bd ec 2e 2e 3f dd 55 80 3e
       0.34647432 -0.085689306 0.6804035 0.25065508
000180 af eb d7 3e bc 0d 02 3f f7 a2 44 3e 0e 56 82 3f
       0.42172 0.50802207 0.19202791 1.0182512
000190 ec 1f 40 3f 37 fe f5 3e 6e 9b 98 bd 70 23 96 3f
       0.7504871 0.48045513 -0.07451521 1.1729565
0001a0 6c fd 52 be 79 bd 96 3e df 22 b2 be c0 d2 e2 3d
       -0.20604485 0.2944143 -0.3479223 0.110753536
0001b0 80 cf 5b 3e 91 dc 2b 3f 53 7d 86 3f 91 f1 2c 3e
       0.21465874 0.6713343 1.0506996 0.16889025
0001c0 94 60 1b 3f 6b 24 ed 3e 06 6f 2f be e9 d1 93 3e
       0.6069424 0.46316847 -0.17132196 0.28871086
0001d0 ba 10 13 3f c8 69 2b be 4c 95 8d 3e 71 08 13 be
       0.574474 -0.16739571 0.27652967 -0.14358689
0001e0 84 0b 36 3e bd 40 22 3f f0 79 97 be 84 b0 b5 3c
       0.1777783 0.6338003 -0.29585218 0.022178896
0001f0 68 55 7c 3e ef 57 dd 3e 8d 82 2e 3f b1 6c 71 3f
       0.24641955 0.4323115 0.68167955 0.94306475
000200 44 b9 9c be 5a 54 10 3f 2e af 4d 3f a4 86 50 3e
       -0.30610096 0.5637871 0.8034543 0.20363861
000210 04 fc 18 bd a3 81 8b be 8c 30 04 3f 94 58 d2 3d
       -0.037349716 -0.27247342 0.51636577 0.10270801
000220 49 c2 45 3e 33 69 2a 3f 36 c7 0e 3f 81 07 3e 3f
       0.19312395 0.6656677 0.5577272 0.742302
000230 a8 98 04 bc d8 fa 1a be 0e 35 1f 3f a9 18 09 3f
       -0.008093037 -0.15134752 0.6219033 0.53553253
000240 9b 2e 8c 3b d6 a8 1c 3e c6 12 c7 3e 1f 70 b9 3e
       0.0042780167 0.15298781 0.3888151 0.36218354
000250 ad 22 28 3f ac c1 cf bd 68 83 15 3f e5 e6 3b 3c
       0.6567791 -0.10144362 0.58403635 0.011468624
000260 71 8a da 3e b6 14 43 3f b8 9f 37 3f da 81 f4 3e
       0.42683747 0.7620348 0.71728086 0.4775532
000270 9f 68 24 bc 84 32 4e 3f ac b0 a6 be bd 36 d8 3e
       -0.010034709 0.8054583 -0.32556665 0.42229262
000280 a4 04 ac 3e 37 fe 11 bd 32 29 4e 3f 3f 9a bf 3e
       0.3359729 -0.03564283 0.8053161 0.37422368
000290 23 12 0a 3f fb ec 07 be b5 62 15 3e 03 68 c1 bd
       0.53933924 -0.13273995 0.14588435 -0.09443667
0002a0 de b1 ce 3e d0 af 6c 3e 3f e8 25 3e 8b 87 1c be
       0.40370077 0.23113942 0.16201876 -0.1528608
0002b0 f0 56 cb bc 22 21 0b 3f c9 e8 02 be 1c a7 02 3f
       -0.024821728 0.5434743 -0.12784113 0.5103624
0002c0 2f 28 ba 3e cf f0 6d be 61 02 b9 be 16 56 9c be
       0.36358783 -0.23236392 -0.36134627 -0.30534428
0002d0 11 3f 3a 3c 9b a8 0a 3f f6 d5 8f be 32 9f 30 3f
       0.011367575 0.5416352 -0.28092927 0.6899291
0002e0 b6 c5 1b 3e 75 5d 9c be 0b 71 a5 bd d1 47 84 3c
       0.1521214 -0.30540052 -0.08078202 0.016147526
0002f0 59 77 61 3e 24 a3 2a 3e 22 79 68 3f 6c 23 ae bd
       0.22018184 0.16663796 0.90809834 -0.0850285
000300 91 16 bb 3d ec 19 d2 3e 04 1f 24 be 55 7c 16 be
       0.091351636 0.41035402 -0.16027457 -0.14695866
000310 11 ca 9d be d7 e3 cc 3e dd 65 3a be f3 ca 24 3e
       -0.30818227 0.40017578 -0.1820292 0.16093044
000320 a6 23 04 3f 5b 9d 25 3f 72 a3 32 be 6f 0c 07 3e
       0.51616895 0.6469323 -0.17445162 0.13188337
000330 1a 97 3b 3e 78 cb 02 3f f3 f4 2e 3e 58 17 29 be
       0.1831936 0.5109172 0.17085628 -0.16512811
000340 cb b5 47 3e 24 05 21 3f 5c a4 cf 3d cb 8b ce be
       0.19502942 0.6289847 0.10138771 -0.4034103
000350 2b 13 58 3e 39 eb e2 be 93 c5 b8 3b 3a df 94 bd
       0.21101062 -0.44320086 0.005638787 -0.072691396
000360 ac d1 07 3f 04 85 35 3f ba a3 84 3d a5 8d 27 3f
       0.5305431 0.7090609 0.06476541 0.6545051
000370 fa 78 02 3e 19 7f 64 3e 8b ef 8d 3e ea 58 da be
       0.12741461 0.22314109 0.2772182 -0.4264596
000380 8a d4 96 3d 22 9c 1e 3f a1 5e a4 bc 2f dd 91 be
       0.07364757 0.6195699 -0.020064654 -0.28489062
000390 53 41 1b 3f 47 ff 2d 3f f2 f5 18 3d ed b5 08 3f
       0.6064655 0.6796765 0.037343927 0.53402597
0003a0 b6 6e 3f be 00 77 f9 3e 04 a0 4a 3f e3 9f 38 3f
       -0.18694577 0.48723602 0.79150414 0.7211897
0003b0 bd 5c 22 3e ec 48 ad 3e 64 60 38 3f 48 a9 8c be
       0.1585569 0.33844697 0.7202208 -0.274729
0003c0 84 9e 7f bc ea 9b fd 3e d6 5a ef bd
       -0.015601758 0.49533015 -0.116872475
