app/models/sanfis_model.pt (torch, 529858 bytes, 12 tensors)

layers.fuzzylayer.fuzzyfication.0._mu f4 [1, 5]
000000 28 5e b5 3d 83 53 bf 3e 92 3c d4 3e 2d 68 29 3f
       0.088558495 0.37368402 0.4145246 0.66174585
000010 31 d5 5e 3f
       0.87044054

layers.fuzzylayer.fuzzyfication.0._sigma f4 [1, 5]
000000 7b d1 82 3e 1b 6c ba 3e e7 e6 af 3b 22 56 9d 3e
       0.25550446 0.36410603 0.005368102 0.30729777
000010 62 f6 a0 3e
       0.31437975

layers.fuzzylayer.fuzzyfication.1._mu f4 [1, 5]
000000 ab 5a 3f bd 19 3d 2b 3e 84 c6 50 3e e9 fc 4a 3f
       -0.046717327 0.16722526 0.20388228 0.7929216
000010 43 3b 60 3f
       0.87590426

layers.fuzzylayer.fuzzyfication.1._sigma f4 [1, 5]
000000 17 45 c0 3d b6 ad cc 3b 66 7f 09 3f 8a ec 50 3e
       0.09388178 0.006246294 0.5371002 0.20402732
000010 41 78 5f 3e
       0.21823217

layers.fuzzylayer.fuzzyfication.2._mu f4 [1, 5]
000000 ed 4c c8 bd 53 c0 ad 3e 0d 2a 01 3f a7 40 5c 3f
       -0.097802974 0.33935794 0.5045479 0.8603615
000010 cf 86 86 3f
       1.050989

layers.fuzzylayer.fuzzyfication.2._sigma f4 [1, 5]
000000 7d 45 4c 3d 3c a2 7e 3d 42 9f e1 3e 93 0b e4 3e
       0.049870957 0.062166438 0.44066817 0.4454008
000010 70 b8 ca 3d
       0.0989846

layers.fuzzylayer.fuzzyfication.3._mu f4 [1, 5]
000000 ec a8 9d bd 10 02 24 3e c5 0d fc 3e 55 26 4a 3f
       -0.07698235 0.16016412 0.49229255 0.7896474
000010 d3 b3 86 3f
       1.0523628

layers.fuzzylayer.fuzzyfication.3._sigma f4 [1, 5]
000000 0f b3 96 3d a7 fe 4e 3e 1f fb aa 3e 54 d0 aa 3e
       0.073583715 0.2021433 0.33394715 0.33362067
000010 80 f0 cc 3d
       0.10006809

layers.fuzzylayer.fuzzyfication.4._mu f4 [1, 5]
000000 f7 b4 80 bd 4e 02 a0 3e e9 50 06 3f f9 d2 4b 3f
       -0.06284516 0.31251758 0.5246721 0.79618794
000010 f3 f7 86 3f
       1.0544418

layers.fuzzylayer.fuzzyfication.4._sigma f4 [1, 5]
000000 af 99 b5 3d 58 d6 92 3e c8 f6 15 3e 74 f8 9c 3e
       0.088672034 0.28679156 0.14644921 0.30658305
000010 c8 61 ba 3d
       0.091006815

layers.consequence._weight f4 [6, 18750]
000000 5a 16 a8 3e e8 7d d5 3e bc b7 db be c0 53 9e 3c
       0.32829553 0.4169762 -0.42913616 0.019327044
000010 a8 85 f9 3e 24 94 ce be 48 15 be be 60 87 98 bc
       0.48734784 -0.40347397 -0.3712561 -0.01861924
000020 e8 6e df be da 6c 9d be 50 5b 7e bd f8 56 01 be
       -0.43639302 -0.3074711 -0.0620988 -0.12630832
000030 a2 dd bf 3e 00 8b d0 bc 34 a1 8f be d8 d5 8b bd
       0.3747378 -0.025456905 -0.28052676 -0.06827897
000040 a0 9c f8 3d 82 7d e2 be 2c f9 8c 3e 3e 4b d8 3e
       0.12139249 -0.4423638 0.27533853 0.42244905
000050 c0 c7 2d bd 82 14 9c 3e f8 ef 1d 3e 30 58 34 3e
       -0.042426825 0.30484396 0.15423572 0.17611766
000060 a0 10 e9 bd 1c 71 40 be d0 a5 a9 3d 12 b5 97 3e
       -0.11380124 -0.18793148 0.08283579 0.29630333
000070 52 44 a2 3e a2 ef d5 3e fe d2 ed 3e 78 49 9f 3e
       0.3169275 0.41784388 0.46450037 0.3111074
000080 50 28 9d 3d 0a f0 f6 3e 52 e6 a0 be c4 2e fe 3e
       0.076737046 0.4823001 -0.3142572 0.49645054
000090 1e 71 b0 3e 58 38 01 be 90 a0 de be f0 7f 82 be
       0.34461302 -0.1261915 -0.43481874 -0.25488234
0000a0 00 49 73 3b 00 14 2d 3a d8 54 b9 be 40 1c f0 3c
       0.0037122369 0.00066024065 -0.36197543 0.029310346
0000b0 32 ca 83 be e0 1e a7 3e c0 f0 2c bc 50 90 e7 bd
       -0.257402 0.32640743 -0.010555446 -0.11306822
0000c0 ac 3b ba 3e f2 a3 84 be 30 e2 ef 3d c0 96 8e 3d
       0.3637365 -0.2590633 0.11713064 0.06962347
0000d0 c4 87 a1 3e b0 de e0 bd 82 83 a1 be fe 33 bb 3e
       0.31548893 -0.10979974 -0.31545645 0.36563104
0000e0 84 93 bb 3e f4 86 72 be e8 fb 34 be 40 87 44 bc
       0.36635983 -0.23684293 -0.1767422 -0.011995137
0000f0 bc 00 b3 be 8c 1e 9d be 1a e7 e1 be 00 38 f7 bd
       -0.34961498 -0.30687368 -0.4412163 -0.12071228
000100 44 97 5f be 9a f9 f1 be 9a 41 fb be 08 75 8c bd
       -0.21835047 -0.47260743 -0.49073488 -0.068582594
000110 54 f0 6b 3e 68 0f df be 90 f8 91 3d 84 53 fb 3e
       0.23040897 -0.43566442 0.07127488 0.49087155
000120 cc 3b 9b 3e 4c e7 eb be 8c 5f 84 be 88 9f b9 bd
       0.3031906 -0.46074903 -0.25854146 -0.09063631
000130 38 47 ed 3d 76 10 ba be 64 d0 c4 3e c0 1b 4c 3e
       0.115858495 -0.36340684 0.3844024 0.19932461
000140 c0 5a 88 3c 08 42 64 3e a2 90 a6 3e 48 ba e4 bd
       0.016644835 0.22290814 0.3253222 -0.11168343
000150 c0 bf d4 bd 44 74 be be 9e fc 8d be 3a 35 83 be
       -0.10388136 -0.3719808 -0.27731794 -0.25626546
000160 80 ed 4c be e6 ea 84 be c8 ae cf 3d f0 ff b7 3e
       -0.20012474 -0.25960463 0.10140759 0.35937452
000170 b0 5d fb bd e4 cb 2d be 46 bc 9e be d0 e7 7d bd
       -0.12273729 -0.1697231 -0.31003016 -0.06198865
000180 36 57 f5 be 7a e0 a0 3e 8a 8e 9e be 40 ec b4 be
       -0.479181 0.31421262 -0.30968124 -0.35336494
000190 d8 6b af 3d e0 50 54 bd 98 5f 71 3e 0c 87 47 be
       0.085654914 -0.05183494 0.23571622 -0.1948511
0001a0 b0 d8 5b 3d c8 2b df be fc 41 67 3e 60 0f 81 be
       0.053673446 -0.4358809 0.22583765 -0.25207043
0001b0 c8 b2 b2 3e a0 6a 39 3d ec ca 4d 3e b8 60 c6 3d
       0.34902024 0.0452677 0.2009694 0.096864164
0001c0 80 3b 1c 3e a8 9b b7 3d 52 4e fb 3e 28 80 84 bd
       0.15257072 0.08965236 0.4908319 -0.06469756
0001d0 80 3b bf 3c 20 fa 54 be a4 99 3d 3e 20 ef e0 be
       0.023343801 -0.2079854 0.1851564 -0.43932438
0001e0 06 0c ba 3e 0e d5 ff 3e 62 27 fd be 00 33 f3 bd
       0.36337298 0.49967235 -0.4944411 -0.11874962
0001f0 9c fa 11 3e 6c 22 6b 3e 20 74 7e 3d 3a 99 cc be
       0.14255756 0.2296235 0.062122464 -0.39960653
000200 78 91 8f be 8a e2 df be 80 18 93 bd 94 3f b6 be
       -0.2804067 -0.43727523 -0.071824074 -0.3559538
000210 42 b6 d6 be 90 b2 88 3d 38 65 6b be c0 04 72 bd
       -0.41935927 0.06674683 -0.2298783 -0.05908656
000220 48 f2 c0 3e 80 e7 12 bd 00 aa d1 ba 18 98 99 bd
       0.37684846 -0.035865307 -0.0015996099 -0.07499713
000230 30 d7 1a 3d ae da eb be 8a 2c ff be 0c f6 f0 3e
       0.037802875 -0.46065277 -0.49838668 0.4706272
000240 ac 8d 6a 3e d0 70 b2 3e f4 05 60 3e 80 48 e8 bc
       0.22905606 0.34851694 0.21877271 -0.028354883
000250 18 fb ba bd ce 1b 9a be 4c 7a 9d 3e 08 0c f6 be
       -0.091299236 -0.30099338 0.30757368 -0.48056054
000260 54 02 b1 be 0a 79 c1 be 20 7d 8d bc 0a 9a 9c be
       -0.3457209 -0.37787658 -0.017271578 -0.30586272
000270 24 86 25 3e f0 0a 11 bd f0 ba 8a 3e b0 27 68 be
       0.16164452 -0.03541082 0.27095747 -0.2267139
000280 20 73 e1 bc 50 a0 53 3d 40 c3 fe be c0 d2 dd 3e
       -0.027520716 0.051666558 -0.4975834 0.43324852
000290 e0 08 c5 bd 28 42 4a 3e 68 43 07 be f8 25 bd 3e
       -0.096208334 0.19751799 -0.13209307 0.3694303
0002a0 38 5b ff 3d c0 23 00 3e c0 50 c2 be 10 0b 95 3e
       0.124685705 0.12513638 -0.37952232 0.29110003
0002b0 90 eb 46 bd 80 aa 4c be f4 3a 76 3e 8e 19 8e be
       -0.048564494 -0.19986916 0.24045926 -0.27753872
0002c0 f0 43 cf 3d 3c a1 b6 3e 28 87 13 3e 40 50 e3 bc
       0.1012038 0.35669887 0.14407027 -0.027748227
0002d0 a0 20 7d 3d 90 79 2f bd 46 cc c6 3e 7c c0 85 3e
       0.06179869 -0.04284054 0.38827723 0.26123416
0002e0 a8 d9 b1 bd b2 41 f2 be 80 ed ad bb ca e7 f6 3e
       -0.08684093 -0.47315747 -0.005307853 0.48223716
0002f0 58 a7 fd bd fa 27 98 be 38 5f ab be ac 58 09 be
       -0.12385434 -0.29718 -0.33471084 -0.13412732
000300 84 1b 1f be 60 d1 64 be d0 74 f4 3e 44 59 bc 3e
       -0.1553784 -0.22345495 0.4774537 0.36786854
000310 a0 2c 7b 3d e6 65 f9 3e 02 42 c5 be bc bb 68 be
       0.061321855 0.48710555 -0.38526922 -0.22727865
000320 18 18 37 3e 78 46 84 3d 9a b2 8f be 20 39 86 3c
       0.17880285 0.06458753 -0.2806595 0.016384661
000330 20 12 72 bd 50 82 c8 3e 56 a1 e8 be d0 bc a5 be
       -0.059099317 0.3916192 -0.4543559 -0.32370615
000340 2a ca d6 be 50 9b 7a bd 18 f5 a3 be fc 38 8a be
       -0.41951114 -0.061183274 -0.3202293 -0.269966
000350 ce 72 c2 be dc 42 ad be e8 77 3b 3e 88 ec a8 3e
       -0.37978214 -0.33840072 0.1830746 0.3299296
000360 4e cc cf 3e 6c c9 41 3e f8 a5 a3 3e 50 65 22 bd
       0.4058556 0.18924493 0.31962562 -0.0396474
000370 34 73 46 3e 48 01 07 be d0 f0 2e be 86 1e de be
       0.19379884 -0.13184083 -0.1708405 -0.43382663
000380 b6 50 f9 be 66 18 81 be 04 3b 6f be ba 39 b2 be
       -0.4869439 -0.25213927 -0.23362356 -0.34809667
000390 9c d7 a5 be 98 0d 06 be 8e 0b af 3e c0 e6 ef be
       -0.3239106 -0.13091123 0.34188503 -0.46855736
0003a0 88 ab 3d 3e a6 3d 91 3e ca 30 fb 3e cc 2a 58 3e
       0.18522465 0.28367347 0.4906066 0.21110076
0003b0 0a 65 d5 be 9c bd c5 3e 04 99 b3 3e f0 eb e9 3d
       -0.4167865 0.38621223 0.3507768 0.11421955
0003c0 2e 3a ce 3e 92 53 89 3e e8 53 b6 be 2c 06 37 3e
       0.40278763 0.26821572 -0.3561089 0.17873448
0003d0 90 58 51 3e 9a 1b 97 be 90 83 68 3d d8 c1 c9 3e
       0.2044394 -0.29513246 0.056766093 0.39405704
0003e0 5a c3 d7 be 80 c6 85 bc b0 65 2b 3d 4a a3 ca 3e
       -0.4214123 -0.016330004 0.041845024 0.39577705
0003f0 c8 c6 ad 3e 6a 03 f2 3e d0 6f 97 bd 02 cd cb 3e
       0.3394072 0.4726823 -0.073943734 0.39804846

layers.consequence._bias f4 [1, 18750]
000000 00 c5 16 bb 34 f3 06 be 00 09 01 be 7e dd c9 be
       -0.0023005605 -0.13178712 -0.1260109 -0.39426798
000010 b0 75 af 3e 60 17 60 be c0 d3 c4 be 90 f9 8b bd
       0.34269476 -0.21883917 -0.38442802 -0.0683471
000020 3c 62 7c be 70 08 87 3e 18 9e fb bd b8 9e 44 be
       -0.24646848 0.26373625 -0.12286013 -0.19201171
000030 c8 40 a4 3d 20 de 38 3e 0e 0b 8e be aa 06 88 be
       0.080201685 0.18053484 -0.2774281 -0.26567584
000040 78 2d 3b be b0 73 78 3d 52 63 d4 3e ea a3 9c 3e
       -0.18279064 0.060657203 0.41482025 0.30593807
000050 9c 9d 78 3e 44 89 1d 3e ce ae 97 be 28 13 d5 be
       0.24278873 0.15384394 -0.29625553 -0.41616178
000060 f6 d4 92 be c0 a3 a1 bc 64 9f 12 be 26 be b8 be
       -0.286781 -0.019731402 -0.14318615 -0.36082572
000070 40 c7 67 be f0 77 28 bd 9a 9e 9e 3e c4 af 61 be
       -0.22634602 -0.041130006 0.30980378 -0.22039706
000080 c6 d7 ed be 68 9a f6 3e 78 8e b1 be 48 e5 9f bd
       -0.46453685 0.48164678 -0.34679008 -0.07807404
000090 b8 92 ad 3d 00 de ab ba c0 bf e4 bd 50 49 1d 3e
       0.0847525 -0.0013112426 -0.11169386 0.15359998
0000a0 e0 2b 91 be 56 f2 b0 3e c4 5f bd 3e ac 68 78 be
       -0.28353786 0.34559888 0.36987126 -0.24258679
0000b0 a8 76 8c be 06 2b ed 3e b4 3b ce be f4 06 80 be
       -0.27434278 0.46321887 -0.40279925 -0.25005305
0000c0 14 2c 58 be 2c 79 c2 3e 8a da f6 be 38 55 30 be
       -0.21110564 0.37983072 -0.48213607 -0.17220008
0000d0 72 13 c1 3e d0 6f 8d 3e c0 26 7e 3e 6c d2 49 be
       0.37710148 0.2762437 0.2481947 -0.19709176
0000e0 f6 9b a8 3e 6c 9c 9f 3e 58 c2 d0 be 50 fc 81 3d
       0.3293149 0.31174028 -0.40773273 0.06346953
0000f0 48 52 66 3e 70 ab 9d be 8c ee 32 3e cc 09 a5 3e
       0.22492325 -0.3079486 0.17473811 0.32234037
000100 56 c5 9b 3e f2 09 c1 be d8 23 18 3e 8a e8 d2 be
       0.30423993 -0.377029 0.14857423 -0.41193038
000110 62 9f d0 3e 88 f5 b9 bd 80 88 e9 bb 20 0e b1 3c
       0.407466 -0.090800345 -0.007126868 0.02161318
000120 ce 82 f1 3e a8 5a db bd 9c 8e 2f be ca c3 9e be
       0.4717011 -0.10710651 -0.17144245 -0.3100875
000130 70 68 a1 3d 08 11 fe 3d 2c 6e 59 be 14 ea 58 3e
       0.07881248 0.12405592 -0.21233433 0.21183044
000140 40 dc 3a be 50 f2 81 3d b4 d7 93 3e 20 9d 6c bd
       -0.18248081 0.063450456 0.28875506 -0.057767034
000150 28 16 a9 3d 28 46 0c be a4 d2 d3 be 58 38 b6 3d
       0.08256179 -0.13698637 -0.41371644 0.088974655
000160 7c 49 2e 3e c6 92 ee 3e ec 9b f2 3e 0c 6e 4a be
       0.1702022 0.46596354 0.47384584 -0.19768542
000170 68 79 0a 3e f6 5b e4 3e da f7 c1 be b4 f2 1d 3e
       0.13522875 0.4460141 -0.37884408 0.15424615
000180 d6 39 95 3e fa a6 c7 be 40 91 29 be d0 01 a7 be
       0.29145688 -0.3899458 -0.16559315 -0.3261857
000190 ec 6e b8 3e 10 f1 98 be 20 49 e6 bc c2 90 9c 3e
       0.36022127 -0.29871416 -0.02811104 0.3057919
0001a0 7e 7c 9b 3e 9e d4 cd be 20 e9 08 bd e4 af 08 3e
       0.30368418 -0.40201277 -0.03342545 0.13348347
0001b0 ea f2 a4 3e bc 9a 44 be c8 4f a9 be 70 a1 a9 be
       0.3221658 -0.19199651 -0.3306868 -0.3313098
0001c0 24 0f d8 3e 40 04 84 bd 68 fb fe be 28 82 a9 3d
       0.4219905 -0.06446123 -0.49801183 0.082767785
0001d0 98 df 55 be 3a 77 f8 3e 24 15 70 3e 88 28 50 3e
       -0.20886075 0.48528463 0.23445565 0.20327961
0001e0 e4 1b e2 be 3a 86 db 3e 20 5b e5 3d fa 81 b2 be
       -0.44161904 0.42875844 0.11199021 -0.3486479
0001f0 4e 98 d5 be 70 cf e6 bd e8 c6 ed 3d a0 48 94 3e
       -0.41717762 -0.11270034 0.11610204 0.28961658
000200 20 c1 e7 3d 5c d8 ef 3e 50 b9 94 3e 9a 67 d9 be
       0.113161325 0.46844757 0.29047632 -0.42461854
000210 c0 70 53 be 1c d7 1b 3e 0c 4c 90 3e 7a d2 ec 3e
       -0.2064848 0.15218776 0.2818302 0.4625433
000220 be 91 ad be c4 f9 a0 3e 1c b6 db 3e 80 4d be bd
       -0.33900255 0.31440556 0.42912376 -0.09292126
000230 98 ef a8 3d 7c 52 a8 3e 20 5e e8 be e6 94 df 3e
       0.08248824 0.3287543 -0.45384312 0.43668288
000240 60 43 45 3d 5c ad 53 be bc 7a ce 3e fa bf b4 3e
       0.048159957 -0.206716 0.40328014 0.35302716
000250 34 98 84 be 6e 9c a6 3e 92 f0 be be 78 df 46 3e
       -0.25897372 0.3254122 -0.37292916 0.19421184
000260 d4 6d 56 3e d0 1f 3f 3e 70 43 33 3d c4 e2 fd 3e
       0.20940334 0.1866448 0.043765485 0.4958707
000270 84 bb e0 3e bc 6e ac 3e d4 bd c1 3e 90 39 4b bd
       0.43893063 0.33678234 0.3784014 -0.049615443
000280 94 90 21 3e 40 1d f3 be 32 16 c3 be 52 6a d6 3e
       0.15777808 -0.47483253 -0.3810287 0.4187799
000290 92 37 b7 be be 44 83 be 62 9a bb be 9c 80 4f 3e
       -0.35784584 -0.25638384 -0.36641222 0.20263904
0002a0 8c 75 43 3e 00 a7 ce bc e6 e5 93 be c0 a1 2d bd
       0.1908781 -0.025226116 -0.28886336 -0.042390585
0002b0 18 6a ea bd 10 d3 f2 3d 08 43 bd bd c4 b6 bd be
       -0.11446017 0.11856663 -0.09241301 -0.37053502
0002c0 80 8c 74 bd a2 94 da be 30 f3 d2 be 36 0d cd be
       -0.059704304 -0.42691523 -0.41201162 -0.40049142
0002d0 00 bf aa bd 7a e5 9f 3e d0 40 29 3d 38 f4 e0 3e
       -0.083372116 0.31229764 0.041321576 0.43936324
0002e0 a0 da c5 bc c8 cc 19 3e b0 19 38 3d b8 5d 10 3e
       -0.0241521 0.15019524 0.044946373 0.14098251
0002f0 e8 01 d5 3e aa 18 bf be d0 67 c0 be e4 87 b2 3e
       0.41603017 -0.37323505 -0.37579203 0.348693
000300 5e 61 89 3e 34 47 7b 3e fe cd d3 3e c0 de 8f bc
       0.26832098 0.2453888 0.41368097 -0.01756227
000310 b0 9f ea bd d0 17 bb bd d2 2d a0 3e 20 f9 85 3c
       -0.11456239 -0.09135401 0.31284958 0.016354144
000320 e8 55 9e 3d ae ee da 3e 56 7c b7 3e ec a4 ee 3e
       0.07731229 0.42760223 0.35837048 0.466102
000330 54 26 1f be 48 06 a1 3d 00 a8 2f bd cc 9e 79 3e
       -0.15541965 0.07862526 -0.042884827 0.24376982
000340 6c 72 79 3e ac e2 22 be 8e 82 df be e4 eb d1 be
       0.24360055 -0.15906781 -0.43654293 -0.41000283
000350 38 bd 9c 3d b2 53 bd be bc b7 d0 3e 68 1f a6 bd
       0.07653278 -0.36977917 0.40765178 -0.08111459
000360 66 c2 f9 be 20 a3 4f 3e cc 09 00 3e ac 94 fa be
       -0.48781127 0.20277071 0.12503737 -0.48941553
000370 de d1 95 be c0 a6 bd 3c 64 19 6f 3e a0 95 35 3d
       -0.29261678 0.023150802 0.2334953 0.044332147
000380 3e 61 8b be 44 2f 62 be 40 2e 98 3d ac 7b d8 be
       -0.27222627 -0.22088343 0.074306965 -0.42281854
000390 d0 5c 22 be 32 64 ac 3e 44 d6 06 3e 7c af 46 be
       -0.15855718 0.33670193 0.13167673 -0.1940288
0003a0 d4 2d 14 3e 22 5e e3 be 58 a0 0b be b2 3c e2 be
       0.14470607 -0.44407755 -0.13635385 -0.44186932
0003b0 de 6e 9d be b6 67 b3 3e 5c da 02 3e 0a 02 96 3e
       -0.30748647 0.35040063 0.1277861 0.2929843
0003c0 f8 ba fa 3e 68 a4 de 3d 5c 1a 0f be 14 50 2a be
       0.4897077 0.10871202 -0.13974899 -0.1663211
0003d0 5e 96 fc 3e da ed e5 be 98 66 52 3e 94 2c 2a be
       0.4933347 -0.4490803 0.20546949 -0.16618568
0003e0 e0 1f 08 3e 30 40 8c 3e cc f4 2a 3e c4 47 7c 3e
       0.1329341 0.2739272 0.16694945 0.24636751
0003f0 a2 72 e5 be 6c e1 86 3e 50 2b 77 bd f8 04 ad be
       -0.4481402 0.26343858 -0.06034404 -0.33792853
