app/models/sanfis_model.pt (torch, 79874 bytes, 12 tensors)

layers.fuzzylayer.fuzzyfication.0._mu f4 [1, 5]
0	0x3de3c5c7	0.111217074
1	0x3ea567db	0.32305798
2	0x3f0dc045	0.55371505
3	0x3f3d93cf	0.74053663
4	0x3f5761f7	0.8413386

layers.fuzzylayer.fuzzyfication.0._sigma f4 [1, 5]
0	0x3e84406b	0.25830397
1	0x3ea6a5ff	0.3254852
2	0x3ec9ddd4	0.39427054
3	0x3bb5d49e	0.0055490276
4	0x3e82f114	0.25574553

layers.fuzzylayer.fuzzyfication.1._mu f4 [1, 5]
0	0x3df88e48	0.12136513
1	0x3e81626d	0.25270405
2	0x3ec0f978	0.3769033
3	0x3f17cbd6	0.59295404
4	0x3f8aa358	1.0831099

layers.fuzzylayer.fuzzyfication.1._sigma f4 [1, 5]
0	0x3ea320e1	0.31861022
1	0x3c38af0b	0.011272202
2	0x3ec04c75	0.37558332
3	0x3e86cb11	0.26326802
4	0x3d93204b	0.07183894

layers.fuzzylayer.fuzzyfication.2._mu f4 [1, 5]
0	0xbd837a44	-0.06419805
1	0x3e966716	0.29375523
2	0x3ecf619f	0.40504166
3	0x3f147f58	0.5800681
4	0x3f84fffb	1.0390619

layers.fuzzylayer.fuzzyfication.2._sigma f4 [1, 5]
0	0x3db585b4	0.088633925
1	0x3dd8776e	0.105696544
2	0x3da91cef	0.08257472
3	0x3f8da4f7	1.1065968
4	0x3dbe82f0	0.09302318

layers.fuzzylayer.fuzzyfication.3._mu f4 [1, 5]
0	0xbd6d873d	-0.0579903
1	0x3e285f87	0.16442691
2	0x3f0b6d9f	0.54464144
3	0x3f631228	0.8869958
4	0x3f8c9993	1.0984367

layers.fuzzylayer.fuzzyfication.3._sigma f4 [1, 5]
0	0x3dcc838f	0.0998603
1	0x3e6390b6	0.22223172
2	0x3ecf55fd	0.4049529
3	0x3e5920d2	0.21203926
4	0x3d565fc8	0.052337438

layers.fuzzylayer.fuzzyfication.4._mu f4 [1, 5]
0	0xbd633a47	-0.0554755
1	0x3eba4e1a	0.36387712
2	0x3edad66c	0.42741716
3	0x3f1bad35	0.6081117
4	0x3f87726e	1.0581796

layers.fuzzylayer.fuzzyfication.4._sigma f4 [1, 5]
0	0x3dc1846c	0.094490856
1	0x3ea61140	0.32435036
2	0x3c475dff	0.0121684065
3	0x3ea9fc5d	0.3320035
4	0x3db96e34	0.09054223

layers.consequence._weight f4 [5, 3125]
0	0xbeb903ce	-0.36135715
1	0x3e99a51e	0.30008787
2	0xbe36af14	-0.17840225
3	0x3effab1a	0.49935228
4	0xbe8e641c	-0.27810752
5	0xbe731cec	-0.23741502
6	0x3ecaa7c0	0.39581108
7	0xbdb2c330	-0.08728635
8	0xbede6822	-0.43438822
9	0x3ef01812	0.46893364
10	0x3e18b2b0	0.14911914
11	0xbe91fac4	-0.2851163
12	0xbed371e4	-0.4129783
13	0x3e273bf0	0.16331458
14	0x3eafe3d6	0.34353513
15	0x3c591180	0.013248801
16	0x3e007158	0.12543237
17	0x3e39e310	0.18153024
18	0x3e80cdba	0.25156957
19	0xbdc05598	-0.09391326
20	0xbe348cac	-0.17631787
21	0xbea00118	-0.31250834
22	0x3b072800	0.0020623207
23	0x3ec8bd24	0.39206803
24	0xbed41d30	-0.41428518
25	0xbebdd206	-0.37074298
26	0x3e6e6490	0.23280549
27	0xbed63968	-0.41840672
28	0x3d7cfd10	0.061764777
29	0xbef50302	-0.47853857
30	0x3e9f2856	0.3108546
31	0x3d056ff0	0.032577455
32	0x3c997140	0.01873076
33	0x3ed25a74	0.41084635
34	0x3e19d9f8	0.15024555
35	0x3e7a1354	0.24421436
36	0xbea74564	-0.32670128
37	0xbee6a4c2	-0.45047575
38	0xbeecbefa	-0.46239454
39	0x3dfbb650	0.12290633
40	0xbe666f10	-0.22503304
41	0x3eccc1c0	0.3999157
42	0x3e9ede9a	0.31029207
43	0x3e2f3424	0.17109734
44	0xbef3269a	-0.47490388
45	0xbd0d9680	-0.034567356
46	0xbede313a	-0.43396932
47	0x3e18d31c	0.14924282
48	0x3ee89898	0.4542892
49	0x3ee13996	0.43989247
50	0xbecfa09c	-0.40552223
51	0xbdbb7a20	-0.09154153
52	0x3d3d7e11	0.046262804
53	0xbeb64c11	-0.3560491
54	0x3e99fd5c	0.3007611
55	0xbe131f10	-0.14367318
56	0xbe4b2c5f	-0.19841145
57	0x3e18481a	0.14871255
58	0x3ed75440	0.42056465
59	0x3e70cdb3	0.23515968
60	0x3eb48138	0.35254836
61	0xbe5eb4f1	-0.21748711
62	0xbf0bd7a2	-0.54625905
63	0xbe9074b7	-0.28214046
64	0x3ef11764	0.47088158
65	0x3eeb96aa	0.46013385
66	0x3e922203	0.28541574
67	0xbec76077	-0.38940784
68	0x3e8f5194	0.27991927
69	0xbe902062	-0.28149706
70	0x3e3ecbcc	0.1863243
71	0x3eff1eb7	0.4982812
72	0x3eeafb40	0.45894814
73	0x3eed00ce	0.46289676
74	0xbe8afcdc	-0.2714604
75	0x3c3194c0	0.010838687
76	0x3db87004	0.0900574
77	0xbe73e796	-0.23818812
78	0x3e818826	0.25299186
79	0x3e92e7c7	0.28692457
80	0x3e196420	0.14979601
81	0x40a9fb40	5.31192
82	0x3cdefc5d	0.027219946
83	0x407520a7	3.830118
84	0x3e968f01	0.29405978
85	0x3ef4dfb7	0.4782693
86	0xc01b3b31	-2.4254878
87	0xbdc64d22	-0.09682681
88	0xc0028ca0	-2.039833
89	0xbe416679	-0.18886746
90	0x3ecc2b77	0.3987691
91	0x3d96417d	0.0733671
92	0xbe0fb9d1	-0.14035727
93	0xc00ba3e3	-2.1818779
94	0xbe1c6a4d	-0.15274926
95	0xbeb600cc	-0.35547483
96	0xbeaf98f5	-0.34296384
97	0xbe2f001a	-0.17089882
98	0x3e9bc582	0.30424124
99	0xbea6538e	-0.32485622
100	0xbed4e0ca	-0.4157775
101	0x3ef7f6b0	0.48430395
102	0x3e130990	0.14359117
103	0xbea0be48	-0.31395173
104	0xbedc56b8	-0.4303491
105	0x3edf01a0	0.43555927
106	0x3d7d2d84	0.061810985
107	0xbe3647dd	-0.17800851
108	0xbecae80a	-0.39630157
109	0x3d9d5778	0.07682699
110	0x3dcd6a60	0.10030055
111	0xbec25053	-0.37951908
112	0xbd2490fa	-0.040177323
113	0x3eca27b4	0.39483416
114	0xbea3ed82	-0.32017142
115	0xbe677420	-0.22602892
116	0x3c1a9410	0.009434715
117	0x3e9ce5b8	0.30644011
118	0x3e8e029e	0.27736372
119	0x3effeeac	0.4998678
120	0xbefae1d4	-0.49000418
121	0xbeeae756	-0.4587962
122	0x3e22029c	0.15821308
123	0xbe5be5e0	-0.21474409
124	0x3e5f3ac8	0.21799767
125	0xbe9b0bee	-0.3028254
126	0x3ca81380	0.02051711
127	0x3c3764c0	0.011193454
128	0x3e150e78	0.145563
129	0x3e3b8740	0.18313313
130	0xbe9cbb96	-0.30611867
131	0xbe2cf094	-0.16888648
132	0xbe91c2e2	-0.28468996
133	0xbebbf0ec	-0.36707246
134	0x3e6ede9c	0.23327106
135	0x3e56f1d4	0.20990688
136	0xbeb625d8	-0.35575747
137	0x3eed6fc2	0.46374327
138	0x3edee902	0.43537146
139	0x3e9575c2	0.29191405
140	0x3e28de20	0.16490984
141	0x3ea840bc	0.32861888
142	0x3de4b3a0	0.11167073
143	0x3d527430	0.051380336
144	0x3ee58212	0.44825798
145	0xbdd5ac10	-0.10433209
146	0x3eb3b20e	0.35096782
147	0xbecd7b38	-0.4013307
148	0x3deabac0	0.11461401
149	0x3df2d3f8	0.11856836
150	0xbe23d744	-0.16000086
151	0xbcc9ed20	-0.024649203
152	0xbe10a4f8	-0.1412543
153	0x3e1fdf40	0.15612507
154	0xbc71da80	-0.014761567
155	0xbe677728	-0.22604048
156	0x3dac5478	0.08414549
157	0xbe89a088	-0.26880288
158	0x3e6ef0f4	0.23334104
159	0x3eb9c366	0.3628189
160	0x3d98a110	0.07452595
161	0xbed0ded2	-0.40794998
162	0xbe9d12f6	-0.3067853
163	0x3e45719c	0.1928162
164	0x3e332d90	0.1749785
165	0xbe38eba0	-0.18058634
166	0xbe71bd64	-0.23607403
167	0x3eba08fe	0.36334985
168	0xbe790ca8	-0.24321234
169	0xbe9bc748	-0.30425477
170	0x3d9c7b78	0.07640737
171	0xbda41be8	-0.08013135
172	0x3d888750	0.06666434
173	0x3efabca4	0.48972046
174	0xbd094960	-0.03351724
175	0x3da65418	0.08121508
176	0xbe2da5e1	-0.16957809
177	0x3e44abac	0.19206113
178	0x3ee4086a	0.4453767
179	0xbdd00e38	-0.10158962
180	0x3e6d3168	0.23163378
181	0xbed0b4be	-0.40762895
182	0x3e4dfad4	0.20115215
183	0x3ede56ec	0.4342569
184	0xbda6a558	-0.081370056
185	0xbee0f9b6	-0.43940514
186	0xbefafa3e	-0.49019045
187	0x3d93a268	0.07208711
188	0x3e37b85c	0.17941421
189	0xbe5aa288	-0.21351063
190	0x3e89d744	0.26922047
191	0x3cc25c80	0.023725748
192	0xbdd70fd0	-0.10501063
193	0x3eb2faba	0.34956914
194	0x3ed93dc0	0.42429924
195	0xbeabae46	-0.33531398
196	0x3eb7d828	0.35907102
197	0x3ccac840	0.02475369
198	0x3ee64bc2	0.44979674
199	0x3ecc7d8c	0.39939535
200	0xbca3ab40	-0.01997912
201	0x3ec5b054	0.3861109
202	0x3e95a59c	0.29227912
203	0xbe447aaf	-0.19187425
204	0xbe3c3f1c	-0.1838345
205	0xbd57b5c0	-0.052663565
206	0x3f00326b	0.5007693
207	0xbef48c86	-0.4776346
208	0x3e4f5121	0.20245792
209	0x3eecf092	0.4627729
210	0xbe81d1a4	-0.25355256
211	0x3e06d86c	0.13168496
212	0x3dda68a1	0.10664488
213	0x3e9db6cb	0.30803522
214	0x3e977002	0.29577643
215	0xbe8eb06e	-0.2786898
216	0xbf13ff77	-0.57811683
217	0x3e8c19a4	0.27363312
218	0xbdda8a7d	-0.10670946
219	0xbf0f4759	-0.5596824
220	0x3c97b600	0.018519402
221	0xbdd625ee	-0.10456453
222	0x3e5a00a8	0.21289313
223	0x3e85012a	0.2597745
224	0x3e574434	0.21022111
225	0xbe91295a	-0.2835186
226	0xbe800442	-0.25003248
227	0xbef418e4	-0.4767524
228	0x3ef3dea6	0.47630805
229	0xbecbe1fe	-0.39820856
230	0x3efb3906	0.49066943
231	0x3f019162	0.5061246
232	0xbed3efa5	-0.41393772
233	0x3eea7da0	0.4579897
234	0x3eac669a	0.3367203
235	0xbc980460	-0.018556774
236	0xbd8ee0f7	-0.069765024
237	0x3e6365e8	0.22206843
238	0x3ea3121e	0.3184976
239	0x3bd36680	0.006451428
240	0xbe8a0f62	-0.2696486
241	0xbcde0015	-0.027099648
242	0xbe7aa668	-0.24477541
243	0x3e40b18c	0.18817729
244	0x3e87006c	0.2636751
245	0x3de0cee8	0.10976964
246	0x3e596218	0.21228826
247	0x3edd8556	0.4326579
248	0xbd99af98	-0.07504195
249	0x3eaf12bc	0.3419398
250	0xbe500db8	-0.20317733
251	0x3dbff298	0.09372443
252	0x3da7f578	0.08201116
253	0xbe1086bc	-0.14113897
254	0x3dd496c8	0.10380322
255	0xbe16b1fc	-0.14716333

layers.consequence._bias f4 [1, 3125]
0	0x3eec8f94	0.4620329
1	0x3e31f044	0.1737681
2	0xbe9cf58c	-0.30656087
3	0xbedb8792	-0.4287687
4	0xbe5ad740	-0.21371174
5	0xbed60e7e	-0.41807932
6	0x3ed66f5e	0.4188184
7	0xbee17d0c	-0.44040716
8	0x3e0406f4	0.12893277
9	0x3e83cd92	0.25742775
10	0x3e6cd730	0.23128963
11	0xbea49a52	-0.32148987
12	0xbd0a11e0	-0.033708453
13	0xbdb8fa88	-0.0903216
14	0x3e2b30e4	0.16717869
15	0xbd652be0	-0.055950046
16	0x3e989fd2	0.29809433
17	0x3e2022ac	0.15638226
18	0xbeb74e56	-0.35801953
19	0x3e508cd0	0.20366216
20	0xbefffa0a	-0.49995452
21	0xbee3ee8e	-0.4451794
22	0x3e419d24	0.189076
23	0xbd2e55f0	-0.042562425
24	0x3dddaa50	0.108235
25	0xbecd3dda	-0.40086251
26	0x3e8b9074	0.27258646
27	0xbeb3894a	-0.3506568
28	0xbe9bfde2	-0.30467135
29	0x3d9a9318	0.07547587
30	0x3e8e65d0	0.27812052
31	0x3caccca0	0.021093667
32	0xbef6a5f0	-0.48173475
33	0xbe0e568c	-0.13900203
34	0x3eed0928	0.46296048
35	0xbeee2cd6	-0.46518582
36	0xbec139ce	-0.37739414
37	0x3e817fbc	0.25292766
38	0xbe1c494c	-0.15262336
39	0xbb74c600	-0.0037349463
40	0xbed8b096	-0.42322224
41	0x3e001c7c	0.12510866
42	0xbeb5675e	-0.35430425
43	0xbd9f77c0	-0.077865124
44	0xbe966806	-0.2937624
45	0x3cbea4e0	0.023271978
46	0xbecbadc4	-0.3978101
47	0x3ee11e3c	0.4396838
48	0xbe8d3778	-0.27581382
49	0x3ee0ce94	0.43907607
50	0x3ee9dc32	0.45675808
51	0x3ea4f9ec	0.32221925
52	0x3ec2f66b	0.38078627
53	0x3e8fe50a	0.2810443
54	0xbf03f6a5	-0.51548225
55	0x3d720880	0.059090137
56	0x3ed26f8b	0.41100726
57	0x3dd3e862	0.10347058
58	0x3e8455eb	0.258468
59	0xbd46b097	-0.048508253
60	0xbed35440	-0.41275215
61	0x3e4b6910	0.19864297
62	0xbf01a8ed	-0.50648385
63	0x3e40b207	0.18817912
64	0x3d819a20	0.06328225
65	0xbe90a892	-0.2825361
66	0x3ed1e535	0.40995184
67	0x3e934de3	0.2877036
68	0xbebdee0e	-0.37095684
69	0xbee52ffb	-0.4476317
70	0xbe8f5c3f	-0.28000066
71	0x3ed3619c	0.41285408
72	0x3eaebaac	0.34126794
73	0x3ecf974a	0.40545112
74	0x3ee10b1e	0.43953794
75	0x3e8ed666	0.27897948
76	0x3f456a0b	0.77114934
77	0xbc2a7a34	-0.010405112
78	0x3e94fc6b	0.2909883
79	0xbe77c5c8	-0.24196541
80	0x3eb872ba	0.3602503
81	0x405263df	3.2873456
82	0xbe123c3b	-0.14280789
83	0xbfb39ebd	-1.4032818
84	0xbeeba8cd	-0.46027222
85	0x3efa3e58	0.4887569
86	0xbde9068c	-0.11378202
87	0xbda1e35c	-0.079046935
88	0x3ecbcf51	0.39806607
89	0x3e9c2af0	0.3050151
90	0x3e5c7cd7	0.21531998
91	0xbfbcd852	-1.4753516
92	0xbe433980	-0.19064903
93	0xbedc0f7d	-0.42980567
94	0x3e9bc8b2	0.30426556
95	0x3e00da91	0.12583376
96	0x3ee9f8cc	0.4569763
97	0x3def99db	0.116992675
98	0xbee5ba94	-0.4486891
99	0x3e805f0a	0.2507251
100	0xbde51e58	-0.11187428
101	0x3ec8482f	0.39117572
102	0xbe5dc8d4	-0.21658641
103	0xbdd51700	-0.104047775
104	0x3ea4bb20	0.32174015
105	0xbeb94a8e	-0.36189693
106	0xbdaade54	-0.08343187
107	0xbeb43272	-0.35194737
108	0xbe85fca6	-0.26169318
109	0x3e85e75c	0.26153076
110	0xbe00bbf0	-0.12571692
111	0xbd844368	-0.06458169
112	0x3ee1d00e	0.44104046
113	0x3ee54fd2	0.4478746
114	0x3e7baf5c	0.24578613
115	0xbea2d1e2	-0.31800753
116	0x3eae5d09	0.34055355
117	0xbe8a4091	-0.27002385
118	0x3cdf41f2	0.027253125
119	0xbea5f5ea	-0.3241418
120	0xbe061b80	-0.13096428
121	0xbdcc0b90	-0.09963143
122	0x3e15f15c	0.14642853
123	0x3ec9d31c	0.39418876
124	0x3cf22a80	0.029561281
125	0x3edb60fa	0.42847425
126	0x3eb705fc	0.35746753
127	0x3eba1a98	0.36348414
128	0xbee35e66	-0.44407958
129	0x3e36bc40	0.17845249
130	0xbe627940	-0.22116566
131	0x3e226850	0.15860105
132	0x3d8ebca0	0.06969571
133	0xbd862578	-0.06550115
134	0x3e1fbf38	0.15600288
135	0x3e8f07e8	0.2793572
136	0xbee077ac	-0.43841302
137	0xbe74d8c0	-0.23910809
138	0x3e47c054	0.19506961
139	0x3b442400	0.0029928684
140	0x3e8853a4	0.26626313
141	0x3c1e8900	0.009676218
142	0x3e1de558	0.15419519
143	0xbed020a8	-0.40649915
144	0xbeb1f83e	-0.34759706
145	0x3e1fcf6c	0.15606469
146	0xbda33a40	-0.07970095
147	0x3d9164a0	0.07099271
148	0xbde3b438	-0.111183584
149	0x3ee5035c	0.44729125
150	0xbe9272fc	-0.2860335
151	0x3e23434c	0.1594364
152	0x3e8de878	0.27716422
153	0xbe19912c	-0.14996785
154	0xbe99849c	-0.29983985
155	0xbc59d380	-0.013295054
156	0x3d239980	0.03994131
157	0x3eb832b8	0.35976195
158	0xbe42fba4	-0.19041306
159	0x3e419370	0.18903899
160	0x3cf78d00	0.030218601
161	0x3e1542d0	0.14576268
162	0x3ec72a04	0.38899243
163	0xbe5b0b48	-0.21391022
164	0x3e6cb7ec	0.23117036
165	0x3eae90fe	0.34094995
166	0x3eb72f02	0.35778052
167	0x3daf5fe0	0.085632086
168	0xbebee310	-0.3728261
169	0xbed8bf6e	-0.4233355
170	0x3dfd5b78	0.12370962
171	0xbeb4c2b0	-0.35304785
172	0x3d83e0c0	0.06439352
173	0xbeb603d0	-0.35549784
174	0xbeeb0782	-0.45904166
175	0xbeed0546	-0.46293086
176	0xbe85c580	-0.26127243
177	0xbed8f2f4	-0.4237286
178	0x3e7d010c	0.2470743
179	0x3efd81b6	0.49513024
180	0x3e922852	0.28546387
181	0x3d87a9a8	0.06624156
182	0xbedd5f8e	-0.43236965
183	0x3eb9bd97	0.36277458
184	0xbe909a0c	-0.28242528
185	0xbe9cb874	-0.30609477
186	0xbeac20e4	-0.33618844
187	0xbee1dbb2	-0.44112927
188	0x3e155278	0.1458224
189	0x3e9efcf4	0.31052363
190	0x3dd289a8	0.10280162
191	0xbe9522c0	-0.29128075
192	0x3e5cd014	0.2156375
193	0x3e7d43a8	0.2473284
194	0xbe81fe08	-0.25389123
195	0x3d75bef0	0.059996545
196	0xbe644a20	-0.22293901
197	0x3e9dde18	0.30833507
198	0x3e9162a0	0.28395557
199	0xbe426e20	-0.18987322
200	0xbea98170	-0.33106565
201	0x3ec182ba	0.3779505
202	0x3e51ebb6	0.20500073
203	0xbec363dd	-0.38162127
204	0xbb42aa00	-0.0029703379
205	0x3ebc09a2	0.367261
206	0x3eaf05ee	0.34184211
207	0x3da793b6	0.081824705
208	0xbecdd1fc	-0.40199268
209	0x3ead21c0	0.33814812
210	0x3df349d8	0.11879319
211	0xbda99c89	-0.0828181
212	0x3cba43fe	0.0227375
213	0x3e1bbdf1	0.15209176
214	0x3ea1c677	0.3159673
215	0x3e1eb594	0.15498954
216	0x3e262417	0.16224705
217	0xbed3f6ce	-0.41399235
218	0xbe1f4fb8	-0.15557754
219	0xbec2c98d	-0.38044396
220	0x3efe296a	0.4964097
221	0x3eaf1405	0.3419496
222	0x3e074a64	0.13211972
223	0xbec45580	-0.3834648
224	0xbef09d8e	-0.46995205
225	0xbd684a60	-0.056711555
226	0x3edfb90a	0.4369586
227	0xbe264fa4	-0.16241318
228	0x3e6ae208	0.22937787
229	0x3ed838b2	0.42230755
230	0xbd662960	-0.056191802
231	0xbece422b	-0.40284857
232	0x3e9a0db5	0.30088583
233	0xbe2e70ec	-0.17035264
234	0x3da7f2e0	0.082006216
235	0x3eaa5f70	0.33275938
236	0xbe5725fd	-0.21010585
237	0x3d14db2c	0.03634183
238	0x3eb7b5fe	0.35881037
239	0xbef44a34	-0.47712862
240	0xbece887a	-0.40338498
241	0x3d8ddaa0	0.06926465
242	0xbea90094	-0.33008254
243	0x3e8de7da	0.2771595
244	0xbd3cf850	-0.046135247
245	0xbe5b2f64	-0.21404797
246	0x3ed10810	0.40826464
247	0x3e86e4aa	0.26346332
248	0xbe160114	-0.14648849
249	0xbebdb59c	-0.3705262
250	0x3dc6ae30	0.097011924
251	0xbe8d3d3a	-0.27585775
252	0x3eafb458	0.3431728
253	0xbdf124d8	-0.117746055
254	0xbefa7f02	-0.48925024
255	0xbeaca31e	-0.337182
